PyTorch/model.onnx (onnx, 771 bytes, 4 tensors)

hidden.weight f4 [8, 4]
-0.064348534 -0.2828775 -0.75516933 0.57131565 0.29237428 0.74120533 -1.0797229 0.8402752
0.010868503 0.48419824 0.05343249 -0.9879921 -0.26111856 0.8442747 0.13774063 0.16186798
0.1607064 -0.4536874 1.0133632 -0.24064301 -0.05462769 0.65677464 -1.0089892 0.724871
0.037733786 0.3568418 1.0920213 -0.09965844 0.067206465 -0.588948 0.7883791 -0.45775926
00000000: 2ac9 83bd 52d5 90be c752 41bf be41 123f
00000010: 15b2 953e a2bf 3d3f 5c34 8abf 471c 573f
00000020: ce11 323c d5e8 f73e 07dc 5a3d 0ded 7cbf
00000030: 55b1 85be 6322 583f e10b 0d3e b8c0 253e
00000040: 3890 243e b749 e8be e3b5 813f 1f6b 76be
00000050: 49c1 5fbd 6222 283f 8f26 81bf 2591 393f
00000060: be8e 1a3d f8b3 b63e 5bc7 8b3f b919 ccbd
00000070: 8ba3 893d 4cc5 16bf 36d3 493f 6c5f eabe

hidden.bias f4 [8]
2.783322 -0.7810817 1.7133844 -2.5241911 0.1253215 -0.20900641 -2.632979 0.52370477
00000000: f321 3240 f8f4 47bf 2e50 db3f 598c 21c0
00000010: 4754 003e c705 56be ba82 28c0 8411 063f

output.weight f4 [3, 8]
4.4217725 0.20929152 11.785023 -3.4045813 -3.834332 0.47999087 -8.3598995 -2.0270708
-2.1004238 0.24299918 -4.9268217 0.95199484 0.1980079 0.14595005 0.2877919 -1.1742002
0.27651468 -0.84614336 4.1448927 -0.65881604 0.44257143 -0.22667275 0.18342675 1.1394356
00000000: 297f 8d40 8450 563e 748f 3c41 a9e4 59c0
00000010: b265 75c0 5dc1 f53e 26c2 05c1 87bb 01c0
00000020: 586d 06c0 c7d4 783e 86a8 9dc0 efb5 733f
00000030: 95c2 4a3e ee73 153e 7659 933e 314c 96bf
00000040: 5593 8d3e da9c 58bf f6a2 8440 2ba8 28bf
00000050: b998 e23e e71c 68be 39d4 3b3e 07d9 913f

output.bias f4 [3]
2.2784626 -1.6705476 1.3055872
00000000: 55d2 1140 81d4 d5bf 7b1d a73f
