PyTorch/model.onnx (onnx, 808 bytes, 4 tensors)

hidden.weight f4 [8, 4]
0.74528533 -0.23643227 -0.3220467 -0.12032265 -0.6806578 0.02144317 0.1213623 0.61446613
-0.047846556 -0.116734646 1.2745297 -1.0587304 -0.009687502 2.9426756 -0.050157335 -0.19453518
0.18323603 0.12950486 1.191167 0.039599154 0.6614634 0.035166997 -0.77306163 0.53323895
-0.11535114 -0.15989448 1.0706316 0.3379779 0.845507 0.55548203 -0.41112256 -0.13564782
00000000: 05cb 3e3f 4d1b 72be 4ee3 a4be b96b f6bd
00000010: 973f 2ebf 96a9 af3c cc8c f83d a74d 1d3f
00000020: c0fa 43bd 9312 efbd ca23 a33f 7a84 87bf
00000030: 54b8 1ebc cc54 3c40 c771 4dbd 3b34 47be
00000040: 3aa2 3b3e ec9c 043e 2978 983f b932 223d
00000050: aa55 293f 450b 103d 5ee7 45bf 5982 083f
00000060: 383d ecbd 61bb 23be 750a 893f 700b ad3e
00000070: 2673 583f 1234 0e3f a87e d2be 43e7 0abe

hidden.bias f4 [8]
1.0622046 2.07422 0.730772 -1.6874853 -1.3292246 0.06492292 -2.7651157 -0.31572503
00000000: 52f6 873f 05c0 0440 e013 3b3f 85ff d7bf
00000010: 0824 aabf 4ff6 843d a8f7 30c0 b6a6 a1be

output.weight f4 [4, 8]
-0.7988143 -0.2841049 -1.2144223 -8.117908 0.641938 -0.6400738 1.1704823 0.069234826
0.0477139 1.3259163 -32.312428 3.7169209 -1.8630481 -0.08185555 -5.412719 -0.6500836
0.57150286 -0.96844214 2.1596754 -1.4490644 -0.8122816 0.58551043 -0.07506046 0.6500332
-0.31217152 -0.21943304 0.48220867 2.7555344 0.20916553 -0.8726887 -0.17507525 -0.18015935
00000000: 187f 4cbf 3376 91be 3172 9bbf f3e2 01c1
00000010: 0c56 243f e0db 23bf 5dd2 953f fdca 8d3d
00000020: a76f 433d a0b7 a93f ed3f 01c2 08e2 6d40
00000030: 5c78 eebf e2a3 a7bd fe34 adc0 e16b 26bf
00000040: 034e 123f d3eb 77bf 1f38 0a40 f17a b9bf
00000050: b0f1 4fbf 03e4 153f 4cb9 99bd 9368 263f
00000060: f2d4 9fbe 0eb3 60be 0ee4 f63e ad5a 3040
00000070: 7d2f 563e 8768 5fbf ed46 33be b17b 38be

output.bias f4 [4]
-1.1811233 2.6233685 -0.6467891 1.2462289
00000000: 0c2f 97bf 45e5 2740 f893 25bf 6e84 9f3f
