PyTorch/model.onnx (onnx, 771 bytes, 4 tensors)

hidden.weight f4 [8, 4]
00000000: 5353 8bbd 843e 283f e4cf acbe 0809 d53e
00000010: 4863 97be 2006 dbbe 98a3 2d3e 16a9 f1be
00000020: a8a1 723e db50 30be b0b0 be3f 663e 193c
00000030: 702a 93bd 6cbf 8dbe d866 dabe c863 cd3d
00000040: a4a5 613c be60 55be 7deb babf b0e6 393f
00000050: c532 683e 95a7 863e 9a0e e7bd 9de1 313f
00000060: 4a9e 993d d961 023e 59fc 5cbf 5728 783e
00000070: 6c78 47be 20c1 d23d d8eb 11be 6eb1 ddbe
-0.06803002 0.6572039 -0.33752358 0.41608453 -0.29567933 -0.4277811 0.16956937 -0.47199315
0.2369448 -0.17218344 1.4897671 0.009353256 -0.07185829 -0.27685106 -0.4265659 0.100287974
0.013772402 -0.20837685 -1.4603115 0.72617626 0.22675617 0.2629973 -0.11282082 0.69484884
0.07500894 0.12732638 -0.8632255 0.24234138 -0.19479531 0.10290742 -0.14250124 -0.4329943

hidden.bias f4 [8]
00000000: 97c3 c8bf b2e9 adbe a29e 973f f07e fdbe
00000010: ec54 0840 0e88 03c0 adc9 1f40 ee67 b3be
-1.5684689 -0.33967358 1.1845286 -0.49510908 2.1301832 -2.055179 2.4966843 -0.3504023

output.weight f4 [3, 8]
00000000: 2a51 0bbf acd0 b0bd ab55 b8bf 564f 383e
00000010: 6b51 b540 36cc 97bf f843 4640 f5f3 923e
00000020: 5b9c bb3f a0b8 6dbd d28e f03d 671f 9e3e
00000030: dc49 0dc0 fac9 963f be0a eabf 98c4 f03d
00000040: 9126 adbf 3b50 94be 52e6 393f acb3 873d
00000050: 9036 61bf d3be 89bf f6b3 993e 368d 5c3e
-0.5442072 -0.08633551 -1.4401144 0.17999014 5.6661887 -1.1859195 3.0978985 0.2870175
1.4657091 -0.0580374 0.11745991 0.30883333 -2.207633 1.1780388 -1.8284528 0.11756247
-1.3527395 -0.2896746 0.72617066 0.066260666 -0.8797388 -1.076136 0.30020112 0.21538243

output.bias f4 [3]
00000000: 322c 223f 30e6 c4bf 1e41 a53f
0.63348687 -1.5382748 1.2910497
