PyTorch/model.onnx (onnx, 808 bytes, 4 tensors)

hidden.weight f4 [8, 4]
0	0xbd14640c	-0.036228225
1	0xbd503639	-0.05083296
2	0x3f8e57fc	1.1120601
3	0xbd3b8421	-0.045780305
4	0xbdb16002	-0.0866089
5	0xbe0c7036	-0.1371468
6	0xbf5a1fd5	-0.8520482
7	0x3f64c184	0.8935778
8	0x3bbd843b	0.0057835854
9	0xbd458dee	-0.048231058
10	0x3d5610e1	0.05226219
11	0xbf3cefe5	-0.7380355
12	0x3f5b0cb0	0.85566235
13	0x3f4895e0	0.7835369
14	0xbe1c8227	-0.15284024
15	0xbeb13048	-0.34607148
16	0xbeed0258	-0.4629085
17	0xbe40da84	-0.18833357
18	0x3de16bdc	0.11006901
19	0x3e5dba74	0.21653157
20	0x3e42353b	0.18965618
21	0xbe8078a1	-0.25092033
22	0x3f0f5004	0.5598147
23	0x3ef9b954	0.48774207
24	0xbd1a7af3	-0.03771491
25	0x404ae26a	3.1700692
26	0xbdc89334	-0.09793702
27	0xbea8176f	-0.32830378
28	0xbf256e52	-0.6462146
29	0x3f4742d8	0.7783637
30	0x3f0e42e9	0.55570847
31	0x3d9a400f	0.075317495

hidden.bias f4 [8]
0	0xbfdd0281	-1.7266389
1	0xbeb75336	-0.35805672
2	0x403359d9	2.8023589
3	0xbde6d5fd	-0.11271284
4	0x4001e033	2.029309
5	0xc019ceb6	-2.4032416
6	0xbf944c60	-1.1585808
7	0x3fa253c3	1.2681812

output.weight f4 [4, 8]
0	0x3e7a2dcd	0.24431534
1	0xbe606ea6	-0.21917209
2	0xc1673569	-14.45054
3	0xbf15e29d	-0.5854891
4	0x3da65caf	0.08123147
5	0x3f23fa2d	0.6405361
6	0xc0f36787	-7.6063876
7	0x3dc44643	0.09583714
8	0xc1348ab1	-11.28386
9	0x3e1d1d5d	0.15343232
10	0xbfdfbc74	-1.7479386
11	0xbf382918	-0.71937704
12	0x3faedf91	1.3661977
13	0xc00aaf2e	-2.1669421
14	0x404b91f0	3.1807823
15	0x3f9d17a6	1.2272842
16	0x3ebe39bb	0.3715342
17	0x3f5101ba	0.8164326
18	0x404d5fae	3.2089648
19	0x3f28bec2	0.65916073
20	0xbf890f8b	-1.0707868
21	0x3e3eb59b	0.18623964
22	0xbf9c95b3	-1.2233185
23	0xbf9d4800	-1.2287598
24	0xbccba61e	-0.024859484
25	0xbf564862	-0.837042
26	0x3f8627fd	1.0480953
27	0xbf559e3c	-0.8344457
28	0xbe805057	-0.25061294
29	0x3ecdb0f7	0.40174076
30	0x401f66c3	2.490647
31	0x3e281b5a	0.16416684

output.bias f4 [4]
0	0xbf5a58ae	-0.85291564
1	0x40243e5b	2.5663059
2	0xbf3a28af	-0.7271833
3	0x3e869d80	0.26292038
