PyTorch/model.onnx (onnx, 809 bytes, 4 tensors)

hidden.weight f4 [8, 4]
1.196636 0.37244183 0.060585923 -0.27529433 -0.18723726 -0.27384305 -0.15340646 0.8881591
-0.0038295474 2.781515 -0.029960902 -0.110646896 0.0014796806 0.012809441 0.024601 -0.781593
0.015978552 -0.047315173 0.96283734 0.10880177 0.1198285 0.12124623 -1.1928278 -0.006780247
-0.2440604 0.13628131 -0.007888913 -0.33339852 -0.43255576 0.34777474 0.3600138 1.0811105
00000000: 5e2b 993f b2b0 be3e f228 783d 61f3 8cbe
00000010: 20bb 3fbe 2835 8cbe 9516 1dbe 655e 633f
00000020: 25f9 7abb 5704 3240 9170 f5bc d79a e2bd
00000030: d8f1 c13a b1de 513c 0988 c93c 7b16 48bf
00000040: 74e5 823c 8ecd 41bd 827c 763f 76d3 de3d
00000050: a568 f53d f24f f83d 95ae 98bf d62c debb
00000060: f8ea 79be 548d 0b3e 8040 01bc 36b3 aabe
00000070: f377 ddbe 880f b23e bb53 b83e d461 8a3f

hidden.bias f4 [8]
-1.0238914 -1.4979875 -2.0570846 3.0785136 -2.1876614 3.190117 -0.11136907 0.67132795
00000000: e00e 83bf 0ebe bfbf 46a7 03c0 5e06 4540
00000010: a502 0cc0 e02a 4c40 7815 e4bd 26dc 2b3f

output.weight f4 [4, 8]
-1.0463243 -0.31458783 4.1419115 0.3642124 -6.0523696 1.1857406 -0.06307277 0.11996671
-0.28855547 -0.30406684 -10.4809885 -16.178057 -0.033476226 -6.437178 -0.18422759 0.718866
1.1057568 1.8515904 -2.9959533 2.6513703 0.6258369 0.87962 -0.18916357 -0.8717273
-0.4810246 -0.56691056 5.21133 1.1934143 0.023879057 -9.994844 0.07197872 0.3490625
00000000: f4ed 85bf a811 a1be 8a8a 8440 0c7a ba3e
00000010: 03ad c1c0 59c6 973f 4c2c 81bd 1bb1 f53d
00000020: 8bbd 93be a6ae 9bbe 21b2 27c1 a96c 81c1
00000030: 5e1e 09bd 5dfd cdc0 28a6 3cbe 9a07 383f
00000040: 7089 8d3f ea00 ed3f b3bd 3fc0 0db0 2940
00000050: d936 203f c72e 613f 18b4 41be 8529 5fbf
00000060: db48 f6be 0d21 11bf 37c3 a640 cdc1 983f
00000070: 039e c33c e2ea 1fc1 9469 933d 52b8 b23e

output.bias f4 [4]
2.4172719 -0.21436264 -1.7978007 0.69157004
00000000: 95b4 1a40 e181 5bbe 551e e6bf bc0a 313f
